data.pth (torch, 20311 bytes, 6 tensors)

l1.weight f4 [8, 373]
00000000: 3c0b ba3c 13d9 203f 3e00 e53c 6e32 2f3e
00000010: e0b7 3cbe 9c89 ff3e bc56 883e a5e6 643e
00000020: e7a4 463e 946b 4f3d ddcb 163f 056d 5bbb
00000030: b75c c03d 762b 4d3e 075a 6e3f 4a22 333e
00000040: c24c 71bf 25f7 7f3e 9113 2d3e f43b 913d
00000050: ccfc c83e 0355 eabe 8b0c 1fbf 9d68 2e3d
00000060: af4d b53d d766 353d 4491 7a3f ec24 b4be
00000070: e78f bd3e e86a 203d ee1c 373e 0c69 6d3f
00000080: 5b94 893e b080 2a3d 1855 713e 70cd 2b3d
00000090: a29f 113e d7ad 413e 71b9 633e bcde 0d3e
000000a0: 5c26 a93d ed2c 4f3e 5550 863c 9444 9e3d
000000b0: 7abd ba3d c875 5f3e fbd3 bb3d 1631 a03e
000000c0: 94bb c93b 0a1f dd3d 246c ef3d 3e29 173e
000000d0: 1355 b03d 2941 833d 57b1 a13d d194 533e
000000e0: a105 053e 2292 e03d 3c06 6a3e dae6 0e3e
000000f0: 5f8d 22bf f55f 413c 0602 583d 66e8 aebe
00000100: 5ad9 433e 87e2 1d3d 8fd0 33be 88ca a03d
00000110: efd7 9e3d ecf2 383d 2019 013d a13c 863d
00000120: 49ca c03d c1a6 a03d 4149 123d ef5f 673d
00000130: 1c6e 083e ec04 0c3e c98b 9b3d 6da5 ce3d
00000140: 9dca f03c 9d8d 533f c037 ea3d a7f8 d6be
00000150: 6432 b63e 8c7b 973c 6d84 a53d 4fee b93d
00000160: 295e 71be fb6e 993e 8715 a23e 4f32 26bf
00000170: 1f66 e53e 9bf7 2a3e 9c47 5c3d fc62 e03c
00000180: 6300 cd3d ce56 4d3d 87aa 0d3d 14de 383e
00000190: a5bd 753e 6ccd 423d 25db 5e3e 06f3 9bbd
000001a0: dee2 9b3f 5db3 3d3f 8bdd e53d 1646 2cbe
000001b0: 53e2 163e 939b b33d fbee 5e3e 5dfa 503f
000001c0: 472f 2b3f adb9 bd3d d7f6 833d 247c b43d
000001d0: 0efb 413d 4e6a b3bd 5187 0a3e 8cd7 c53c
000001e0: 1283 193d e88e 763d 8a19 9b3e 91ac 223d
000001f0: eaf7 cf3d 75eb 5d3f f4da cc3d 5e8b 5e3d
00000200: b6c6 f93d 54be 7a3d bd36 8a3d fb12 623e
00000210: 18c1 22bf e907 3a3f cb90 6b3d a33e 103e
00000220: 193d 1b3e ea10 9a3d 45ed 983e 9180 da3f
00000230: 52ac 403c 91fe a83d db23 3f3f 1c02 2c3f
00000240: 236a 7c3e bf1a 513e 5019 a13e 8c6d ef3d
00000250: f0f0 3e3f 5616 3f3f 3ac7 863d 7722 683e
00000260: e8d2 ce39 ac31 eb3c 5bba 9c3c 64d0 3d3f
00000270: 4993 853e d244 3b3f af5e 253d 6dc1 0f3e
00000280: d9b5 753e bc93 fb3d c9cd 9c3d e875 bc3d
00000290: 7893 4e3e d899 a83e 04a5 82bc dc99 053e
000002a0: 7a10 853e 3bce 133e 9edf ddbe be84 183f
000002b0: ffdc a13d b640 813e 0403 35bf 04ec f9be
000002c0: d074 4f3f 3cd8 fabe 320a c43d 4540 643f
000002d0: 470c 9f3d fb6a fdbe 09bb 223d 06f3 1a3d
000002e0: ee9b f73e 6a2d be3e 2054 8b3a 5e94 433e
000002f0: 17e2 afbe 9668 d5be 0687 3e3f 0185 e73e
00000300: 56da 803e 87cc f8be 6fda cebe 04d1 413e
00000310: 57be 103e 71cc 94be bd2f d53d cb98 003f
00000320: 74c1 0a3f 97bb a13d a9f5 cc3d be98 b43e
00000330: f854 d73d a57f de3d fe83 2d3d 4ba0 883d
00000340: 461d da3d 92ec ca3d 2a67 1d3e 9bc1 b53e
00000350: c29a 023f a6a7 723f fd94 2fbe 4e72 5e3e
00000360: 9b93 56b9 2137 d43d cbae 343d 631f ce3d
00000370: d729 1ebf 4924 c4bc eadb 18bf 665e cd3d
00000380: 0f8f dfbe 5a21 aa3c 740c 0d3f 6240 ef3d
00000390: a46f 9e3d c18b 05bd 2656 ea3d 3321 9d3d
000003a0: 0e08 ee3d f5e5 383e 4104 ba3c 52e2 223d
000003b0: c781 943e ee3c 093e a321 943d 9566 323e
000003c0: 0d24 da3d ece6 be3d c241 413f 3e45 433d
000003d0: 7553 0f3e 432a 8d3d 70a3 133d 4d2e 4e3d
000003e0: 7799 d83d 2b11 743f c080 583f 58cb 053e
000003f0: 24b7 7a3d 5a68 963d 17ef 88be 8368 303e
0.022710435 0.6283123 0.027954217 0.17109081 -0.18429518 0.49909675 0.26628673 0.22353609
0.19398843 0.050639704 0.5890482 -0.0033481729 0.09392684 0.2003611 0.9310612 0.17493549
-0.9425775 0.24996622 0.16901995 0.07091513 0.3925537 -0.45767984 -0.62128514 0.042580236
0.088527076 0.04428753 0.9787791 -0.3518442 0.3702385 0.039164454 0.1788213 0.92738414
0.26871 0.041626632 0.23567617 0.041943967 0.14221051 0.18913971 0.22238709 0.13854498
0.082592696 0.20231982 0.016395727 0.07727924 0.09118171 0.21822274 0.091712914 0.3128745
0.0061563943 0.10796936 0.11690548 0.14761826 0.086099766 0.06408913 0.07895153 0.20662238
0.12990429 0.109653726 0.2285394 0.1395525 -0.63496965 0.011802663 0.052736305 -0.3416168
0.19125882 0.03854611 -0.17560028 0.0785113 0.0775603 0.045153543 0.0315181 0.06554533
0.09413583 0.07844306 0.03571439 0.056487974 0.13323253 0.13673753 0.07595021 0.10090146
0.029393489 0.8263796 0.11436415 -0.41986582 0.3558532 0.018491529 0.08081899 0.09078657
-0.23571075 0.29967484 0.3165705 -0.64920515 0.44804475 0.16696016 0.05377923 0.02739095
0.100098394 0.05013161 0.034586456 0.18053466 0.23998125 0.047559187 0.21763285 -0.076147124
1.2178609 0.7410181 0.112238966 -0.1682361 0.14734773 0.08769908 0.21770851 0.81632024
0.66869015 0.092639305 0.06443565 0.088127404 0.047358565 -0.087605104 0.13528182 0.024150632
0.037478514 0.06019488 0.30292922 0.039715353 0.10154708 0.86687404 0.100026995 0.05433213
0.12196104 0.061216667 0.06748722 0.22077553 -0.6357589 0.7266832 0.057511132 0.14086394
0.15160026 0.07522757 0.29868522 1.7070485 0.011759834 0.0825168 0.74664086 0.6719072
0.24649863 0.20420359 0.31464624 0.11690816 0.7458639 0.74643457 0.06580968 0.22669397
0.0003944852 0.028710209 0.01913183 0.74146104 0.26088932 0.73151886 0.0403735 0.1403863
0.2399515 0.122840375 0.07656438 0.09202176 0.20173442 0.32929873 -0.015947826 0.13046974
0.25989133 0.1443414 -0.4333467 0.5957755 0.0790348 0.25244683 -0.70707726 -0.48812878
0.81037617 -0.489931 0.09572257 0.8916057 0.077660136 -0.49495682 0.039729152 0.03782942
0.48361152 0.37144023 0.001062993 0.19099566 -0.3435218 -0.41681355 0.7442478 0.4521866
0.25166577 -0.48593542 -0.40401027 0.1892739 0.14135109 -0.29062226 0.10409496 0.50233144
0.54201436 0.07897108 0.100077935 0.35272783 0.105142534 0.1086419 0.042362206 0.066711985
0.10650115 0.099084035 0.15371385 0.35499272 0.5101739 0.9478706 -0.17146678 0.21723291
-0.00020463618 0.103620775 0.044112008 0.1006458 -0.6178259 -0.023943083 -0.5971056 0.10027771
-0.43663833 0.020767856 0.55097127 0.11682202 0.077361375 -0.032603983 0.11442213 0.07672348
0.1162263 0.18056472 0.022707107 0.039766617 0.29005262 0.13402149 0.07232978 0.17421944
0.106514074 0.093213886 0.75490963 0.047673456 0.1399668 0.068928264 0.036044538 0.050337125
0.10576146 0.95338696 0.84571457 0.1306585 0.061209813 0.07344122 -0.2674491 0.17227368

l1.bias f4 [8]
00000000: fc85 1f3f ae90 333f b258 f53e 3b78 713f
00000010: 6045 2d3f a0a9 513f b702 d23e 3c39 043f
0.6231382 0.7014264 0.47919232 0.9432408 0.6768398 0.8189945 0.41017696 0.5164983

l2.weight f4 [8, 8]
00000000: f335 473f 8e78 8e3f 79ae 12bd a7cf 41bf
00000010: c3e9 953f fddd 823f c475 583f 0b94 3bbf
00000020: 66fa cf3f 7a55 843f 106e f53f 8266 77bf
00000030: 2112 65bf e68a cc3d d923 b33f 5e26 e13e
00000040: de9b 833f 11ae f5be fa6a e4bd 3373 d93f
00000050: 32be 04bf e5ff df3f af30 a0bf bf55 efbc
00000060: 2715 82bf 8e54 873f 384d be3f 84e0 d73f
00000070: 6355 ed3f f9ea a7bf 9656 343e a129 993f
00000080: 878f 8f3f 479a 693f f07c 90bd 8e48 d13e
00000090: 0588 85bf f35c 93be bb71 853f 977a 08bf
000000a0: d46d 873f f332 60bf bc4c 18bf c751 803d
000000b0: dd1b 993e c144 c43f f7c4 0240 c19e 823f
000000c0: 99fd 25bf 32fc 593f 9135 c93d 25f4 06bf
000000d0: 22ed 63bf 3ea0 3240 8b7e a53f 28ef 8b3f
000000e0: 76fa 833f 7da9 8c3f e03f 97bf 93b2 353f
000000f0: 3610 af3f 399d 253f 3f3d a23e 8db4 bebf
0.77816695 1.113054 -0.03581092 -0.7570748 1.1711963 1.0223995 0.84554696 -0.7327277
1.624829 1.0338585 1.9174213 -0.9664079 -0.8948079 0.0998743 1.3995315 0.43974584
1.0281942 -0.47984365 -0.11153217 1.6988281 -0.51852715 1.7499968 -1.2514857 -0.029215692
-1.0162705 1.0572679 1.4867315 1.6865392 1.8541683 -1.3118583 0.17611155 1.1965829
1.1215676 0.91251034 -0.0705508 0.40875667 -1.0432135 -0.28781852 1.0425333 -0.5331206
1.0580392 -0.8757774 -0.5949209 0.06265598 0.2990407 1.5333482 2.0432718 1.0204698
-0.64840084 0.85150445 0.0982467 -0.52716285 -0.8903371 2.7910304 1.2929243 1.093236
1.031081 1.0989224 -1.1816368 0.7097561 1.3676822 0.6469303 0.31687352 -1.489885

l2.bias f4 [8]
00000000: d885 1d3e b1b0 c83e 10ab 383f 28be 0a3f
00000010: 108f b83e 0874 873e aa4d 4fbe 8802 0a3f
0.15383089 0.39197305 0.7213602 0.54196405 0.36046648 0.26455712 -0.2024447 0.5391011

l3.weight f4 [19, 8]
00000000: bdae 0ac0 51b6 bdbf 7c3a 9f3e ebd5 503f
00000010: d80f a6bd 376f 243e 3176 7ac0 f1c4 38bf
00000020: 4fa1 a93e 50c2 2b3f cd92 07c0 2d3a ccbf
00000030: ae2c de3e 570c 68be 1587 3c3f 7da3 a2bf
00000040: bae3 743e 412c d73e 9484 64c0 1cd9 e43d
00000050: b51f 4cbf 12ab 46bf d12f 62be fd8d b6bc
00000060: 6cd2 3dbf 5e8c 74be df5e 27c0 7dc1 e33e
00000070: d00a 8cbf a322 363f 50a9 45bf eb0b 78bf
00000080: 1013 af3e beea b63e b02e b4be 9eb6 03c0
00000090: 636d 243e 02d5 f1bd e75b 9dbf 7f94 d03e
000000a0: 0b4b c5bd 2a36 cbbf 61a3 9fbf ccc1 f23d
000000b0: d09a 40bf 5633 403f 8cb7 58c0 3ed1 d43e
000000c0: dcf5 eb3d 0a71 96bf 4674 803e 92eb 2c3f
000000d0: 081a 883b 2d62 babf 5dc8 8ec0 ac00 d63e
000000e0: 2c6e 15bf 8f22 2dbf b5a7 b13e c67a cfbf
000000f0: f308 8d3e 4aa2 87be 55bb 8d3e c09d 28be
00000100: 96cf 003f 2670 42be ab72 ecbf 99dc e1be
00000110: f07b 163f 00c4 c8be f736 25c0 f94d 753f
00000120: fcd9 16c0 66e9 25c0 9bfd 703f 5e2e e6be
00000130: e9f0 5abf 5d90 143f ce51 0b3f 947a b5bf
00000140: 9ef3 a0bc 0759 ffbf f015 963f 8e70 88bf
00000150: ab7c 1bbf 5a21 b63e 148b e6bf 9334 693f
00000160: 0dc2 8a3e d891 d7be 7231 ecbe b97a bfbe
00000170: d0fc 10c0 1ec9 ea3e 1520 293e 1e49 34bf
00000180: 89be c8be 2b1e 9a3e f49e 4f3f ad55 4cbf
00000190: 0875 443f 133c 1cbf 70fa 85c0 1f40 0b3e
000001a0: d532 88bf cafd 673e b88c 20bc d5b5 a53e
000001b0: 75a9 7a3e 47b6 5fbf 80c0 bcbe c07a bdbf
000001c0: 8d31 993e 3c3e 0fc0 21ee aebf 5a7d 083e
000001d0: b325 e1be a4c4 9fbe c2d5 d5bc e24f e43e
000001e0: c48d 9bbf 3f8a 8e3e 0809 27bf 357f 50bf
000001f0: 32ed 003f 1723 4a3f b722 3cbe b9ff 3cc0
00000200: ec55 cdbf 1fff bc3e b5f7 833e 143d c73e
00000210: 36a8 4ebf 0bbb 27bf 3244 adbe b71c 59c0
00000220: 9a01 913d 78aa d23e f5c6 73c0 e56f 513f
00000230: 84b5 91bf 59fa bebf e165 eabf e34d 16c0
00000240: 734c 42bf fdcd c23c 9ca3 cd3e 5f53 48c0
00000250: 9245 c6be 8a74 753f b3de da3e 64b8 f8bf
-2.1669152 -1.4821264 0.31099308 0.8157641 -0.08108491 0.1605805 -3.9134638 -0.7217551
0.3313088 0.6709337 -2.118335 -1.5955254 0.43393463 -0.22660957 0.7364362 -1.2706143
0.23914996 0.4202595 -3.570592 0.11174223 -0.7973588 -0.7760478 -0.22088553 -0.022284502
-0.74149203 -0.23881671 -2.6151655 0.44483557 -1.09408 0.711466 -0.77211475 -0.96893185
0.3419423 0.3572597 -0.3519187 -2.058021 0.16057353 -0.11808206 -1.2293671 0.40738294
-0.09633454 -1.5875905 -1.2471734 0.1185337 -0.75236225 0.7507833 -3.3862028 0.4156589
0.11521503 -1.1753247 0.2508871 0.6754695 0.004153494 -1.4561211 -4.4619584 0.41797388
-0.58371234 -0.6763086 0.34698263 -1.6209342 0.2754589 -0.26491004 0.27681985 -0.16466427
0.5031675 -0.18988094 -1.8472494 -0.44113615 0.58782864 -0.39212036 -2.5814798 0.958221
-2.3570547 -2.5923705 0.9413697 -0.4495725 -0.8552385 0.5803278 0.544217 -1.4178033
-0.019647416 -1.9949044 1.1725445 -1.0659349 -0.60737103 0.3557232 -1.8011193 0.91095847
0.27101174 -0.42103457 -0.46131474 -0.37398317 -2.2654305 0.45856565 0.16516145 -0.7042407
-0.39207867 0.3010114 0.8110192 -0.7981823 0.76741076 -0.61029166 -4.186821 0.13598679
-1.0640513 0.22655407 -0.009799175 0.3236529 0.24478705 -0.8738751 -0.36865616 -1.4803085
0.29920617 -2.2381735 -1.3666421 0.13329068 -0.43974075 -0.31204712 -0.026102904 0.44592196
-1.2152638 0.27839848 -0.65248156 -0.814441 0.5036193 0.7895979 -0.18372618 -2.953108
-1.6041846 0.36913392 0.25774923 0.38913786 -0.8072542 -0.6551978 -0.3384109 -3.3923776
0.070803836 0.41145682 -3.8090184 0.8181136 -1.1383519 -1.492015 -1.8312341 -2.3485038
-0.758979 0.023779863 0.40163887 -3.1300886 -0.38724953 0.9588095 0.4274803 -1.9431272

l3.bias f4 [19]
00000000: 74fa cd3e 11f3 763d 0557 5dbe e012 a9be
00000010: 6858 ecbc 9519 02bf a2ae 823e 81f4 6ebf
00000020: fc8e f2be 51fd 573e 5178 12bc 3a70 4cbc
00000030: 96c9 fabe 91d3 e63e ec0d adbd 6029 e1be
00000040: e49e d33d 9b7d ed3d 8ec8 3f3e
0.40230143 0.0602904 -0.21615227 -0.33022213 -0.02885075 -0.50820285 0.2552386 -0.93341833
-0.47374713 0.21092726 -0.0089398185 -0.012477929 -0.48981923 0.45083287 -0.08449921 -0.4397688
0.1033304 0.11596223 0.1872885
